data/translations_vect/B_1_fr_0.npy (npy, 36992 bytes, 1 tensors)

array f4 [1, 18, 512]
-0.03129077 -0.028678894 0.027421474 -0.023432255 0.010091782 -0.04665172 -0.0039503574 -0.01279068
-0.10215402 0.016459584 0.008279324 0.017440438 -0.00886631 -0.02942729 -0.022408485 -0.014228284
-0.04917741 0.020358086 0.009429395 -0.0047671795 0.04260969 0.045768082 -0.013142288 0.012324333
0.0052092075 0.020802736 0.016951084 -0.020267487 0.05259943 -0.0027148724 0.06156349 0.008981705
0.029574513 -0.0034046173 0.01996994 -0.006610036 -0.0689919 -0.0044811964 0.023866892 0.00068855286
-0.036084652 -0.08389616 -0.038724303 -0.016242266 -0.0012090206 0.008574009 0.038774967 -0.06477094
-0.0072186887 0.054950356 -0.08150983 -0.009437561 0.0086221695 -0.028563619 -0.022334576 -0.038479567
-0.049693704 -0.02497816 -0.018274307 0.0013904572 0.014598131 0.0402925 -0.003964424 -0.029063173
-0.015176564 -0.023745775 0.042562485 0.02373603 -0.021720886 -0.02624917 -0.030044377 -0.063780546
0.016861439 -0.028849602 -0.0015169382 -0.05385697 0.020640373 0.011895895 -0.042667508 -0.026506811
0.0130729675 -0.054102138 0.034929752 0.09240508 -0.002504468 -0.04271865 -0.007711172 -0.064940214
0.013219476 0.0120188 -0.029154554 0.030997753 -0.01318264 0.0010454655 0.04212761 -0.01624751
0.03690815 -0.008490086 -0.022295132 -0.014412165 0.0018742085 -0.020766258 -0.02739954 -0.088421345
-0.07201016 0.053126574 0.041948557 0.022372484 0.014691234 -0.00017929077 0.0129983425 -0.06404185
-0.021790862 0.004930377 0.06344843 -0.027860403 -0.01116848 -0.021445632 -0.08848667 0.0035877526
0.023964882 -0.025470734 -0.014486313 -0.04433167 0.00397557 0.048966408 0.031934053 0.0597409
-0.04548788 -0.013281286 0.038504124 0.0006737709 0.004972875 -0.028030992 0.0030260086 -0.035620213
0.008548319 0.016536027 0.0060658455 0.03926176 -0.02496326 -0.00874567 -0.050201178 -0.022821665
0.061855793 0.0264256 0.027152658 0.06098032 -0.017826796 -0.006983906 0.045263886 0.005230427
-0.018854648 0.102424145 -0.009455204 -0.051165342 0.0077285767 0.0007171631 0.013032436 0.022839546
0.012863636 -0.035938263 0.018178463 0.0070233345 0.009273052 0.008959413 -0.05669713 -0.00027394295
0.03187418 -0.04262173 0.02915144 0.03835368 -0.025400877 0.046956062 -0.0047044754 -0.08034086
-0.009511948 0.024771571 0.007940173 0.014413357 -0.062423926 -0.008173227 -0.0013177991 0.03679645
-0.042178154 -0.00079774857 -0.062304854 -0.015390396 -0.013861656 0.007950306 -0.052935123 -0.04364848
0.018181324 -0.03264635 -0.07697463 -0.026352882 -0.009291649 0.0042589307 0.028866649 -0.032609463
0.029764086 -0.036363363 -0.041168556 0.050605774 -0.042171955 0.065868974 0.03097868 0.05205226
-0.0020910501 -0.10541642 -0.088094234 0.026508331 -0.015951633 -0.007925034 0.004685402 -0.05197656
-0.002705574 -0.038838625 -0.0140247345 0.0075626373 -0.030655622 -0.0028891563 -0.008297205 -0.021619678
-0.008880317 -0.008305073 -0.07446766 -0.024281025 -0.017661482 -0.010243833 0.016064167 -0.0224123
-0.0034641027 -0.08343077 -0.0051436424 -0.012412071 -0.04700136 0.026121378 0.07921469 0.00048398972
0.045666695 0.019309163 0.014935672 -0.035356045 0.045082092 -0.0052508116 -0.03266859 -0.005613804
-0.014442682 0.052307665 -0.038882017 -0.0148739815 0.047227383 0.0060577393 0.0018851757 0.0055812597
00000000: c02a 00bd 00f0 eabc 00a3 e03c 00f5 bfbc
00000010: 0058 253c e015 3fbd 0072 81bb 0090 51bc
00000020: 2036 d1bd 40d6 863c 00a6 073c 40df 8e3c
00000030: 0044 11bc 8011 f1bc 0092 b7bc c01d 69bc
00000040: 406e 49bd 00c6 a63c c07d 1a3c 0036 9cbb
00000050: 8087 2e3d 5077 3b3d c052 57bc 00ec 493c
00000060: 00b2 aa3b 806a aa3c 00dd 8a3c 0008 a6bc
00000070: 8072 573d 00ec 31bb 002a 7c3d 0028 133c
00000080: 4046 f23c 0020 5fbb 0098 a33c 0099 d8bb
00000090: a04b 8dbd 00d7 92bb 8084 c33c 0080 343a
000000a0: 80cd 13bd c0d1 abbd 609d 1ebd 800e 85bc
000000b0: 0078 9eba 007a 0c3c 80d2 1e3d a0a6 84bd
000000c0: c08a ecbb a013 613d a0ee a6bd 00a0 1abc
000000d0: 0044 0d3c 40fe e9bc 00f7 b6bc c09c 1dbd
000000e0: a08b 4bbd 009f ccbc 00b4 95bc 0040 b63a
000000f0: 002d 6f3c c009 253d 00e8 81bb e415 eebc
00000100: 20a7 78bc 8086 c2bc 0056 2e3d 1072 c23c
00000110: 00f0 b1bc 8008 d7bc a01f f6bc 609f 82bd
00000120: 0021 8a3c 0056 ecbc 00d4 c6ba 2099 5cbd
00000130: 0016 a93c 00e7 423c 20c4 2ebd d024 d9bc
00000140: 0030 563c 349a 5dbd 8012 0f3d e03e bd3d
00000150: 0022 24bb c0f9 2ebd 00ae fcbb 60ff 84bd
00000160: 8096 583c 80ea 443c 88d5 eebc 00ef fd3c
00000170: 00fc 57bc 0008 893a 008e 2c3d 8019 85bc
00000180: 002d 173d 001a 0bbc 48a4 b6bc 0021 6cbc
00000190: 00a8 f53a 001e aabc 0075 e0bc 4016 b5bd
000001a0: 107a 93bd 409b 593d 40d2 2b3d 8046 b73c
000001b0: 80b3 703c 0000 3cb9 00f7 543c 6028 83bd
000001c0: c082 b2bc 008f a13b 40f1 813d 803b e4bc
000001d0: 00fc 36bc c0ae afbc 8038 b5bd 8020 6b3b
000001e0: 0052 c43c 00a8 d0bc 0058 6dbc 2095 35bd
000001f0: 8045 823b 0091 483d 48cd 023d e0b2 743d
00000200: 8051 3abd c099 59bc 80b6 1d3d 00a0 303a
00000210: 80f3 a23b 40a1 e5bc 0050 463b 80e6 11bd
00000220: 400e 0c3c 9076 873c 00c4 c63b f0d0 203d
00000230: c07f ccbc 004a 0fbc c09f 4dbd 80f4 babc
00000240: 805c 7d3d 807a d83c 406f de3c 80c6 793d
00000250: 8009 92bc 40d9 e4bb a066 393d 0064 ab3b
00000260: 1075 9abc c0c3 d13d 00ea 1abc c092 51bd
00000270: 0040 fd3b 0000 3c3a 0086 553c 001a bb3c
00000280: 00c2 523c 0034 13bd 00eb 943c 0024 e63b
00000290: 00ee 173c 80ca 123c 403b 68bd 00a0 8fb9
000002a0: 808e 023d 2094 2ebd 00cf ee3c c018 1d3d
000002b0: 8015 d0bc 0055 403d 0028 9abb c089 a4bd
000002c0: 00d8 1bbc c0ed ca3c 8017 023c 0026 6c3c
000002d0: 3bb0 7fbd 00e9 05bc 00ba acba e0b7 163d
000002e0: 00c3 2cbd 0020 51ba 6033 7fbd 0028 7cbc
000002f0: 001c 63bc 0042 023c 80d2 58bd c0c8 32bd
00000300: 00f1 943c 2eb8 05bd e0a4 9dbd 00e2 d7bc
00000310: 003c 18bc 808e 8b3b c079 ec3c 8091 05bd
00000320: d0d3 f33c c0f1 14bd 5ca0 28bd 0048 4f3d
00000330: 80bc 2cbd 50e6 863d 00c7 fd3c c034 553d
00000340: 000a 09bb 90e4 d7bd c06a b4bd 0028 d93c
00000350: 00ad 82bc 00d8 01bc 0088 993b 60e5 54bd
00000360: 0050 31bb 4015 1fbd 00c8 65bc 00d0 f73b
00000370: 8021 fbbc 0058 3dbb 00f1 07bc c01b b1bc
00000380: c07e 11bc 0012 08bc 8082 98bd 00e9 c6bc
00000390: d0ae 90bc c0d5 27bc 0099 833c 009a b7bc
000003a0: 0006 63bb c0dd aabd 008c a8bb 005c 4bbc
000003b0: 8084 40bd 80fc d53c 503b a23d 00c0 fd39
000003c0: 000d 3b3d 402e 9e3c c0b4 743c 80d1 10bd
000003d0: 00a8 383d 000f acbb 80cf 05bd 00f4 b7bb
000003e0: 00a1 6cbc 9040 563d c042 1fbd 00b2 73bc
000003f0: 8071 413d 0080 c63b 0018 f73a 00e3 b63b
