projection/default_translations/unconditional/B_0.npy (npy, 36992 bytes, 1 tensors)

array f4 [1, 18, 512]
0	0x3c8d7300	0.01726675
1	0x3c87a3c0	0.016557574
2	0xbc721c00	-0.0147771835
3	0x3c498a00	0.012300968
4	0xbbc2ec00	-0.0059485435
5	0x3cd13200	0.025536537
6	0x3b0cf800	0.0021510124
7	0x3bf08300	0.007339835
8	0x3d6cc520	0.05780518
9	0xbc167d80	-0.009185195
10	0xbbaf9000	-0.0053577423
11	0xbc2a9300	-0.010411024
12	0x3bb19800	0.005419731
13	0x3c84e300	0.016221523
14	0x3c5a0600	0.013307095
15	0x3c0b52c0	0.008503616
16	0x3ce8ad00	0.028402805
17	0xbc383400	-0.0112428665
18	0xbbbe2e00	-0.0058038235
19	0x3b509800	0.003182888
20	0xbcc84d00	-0.024450779
21	0xbcd1fd00	-0.025633335
22	0x3beded00	0.0072609186
23	0xbbdac600	-0.0066764355
24	0xbb232800	-0.0024895668
25	0xbc3e5a00	-0.011618137
26	0xbc1cb500	-0.009564638
27	0x3c376200	0.011192799
28	0xbcf30200	-0.02966404
29	0x3b07ce00	0.002072215
30	0xbd114740	-0.03546834
31	0xbbb1b000	-0.005422592
32	0xbc8652c0	-0.01639688
33	0x3aee9000	0.0018200874
34	0xbc4d8e00	-0.0125460625
35	0x3b799c00	0.0038087368
36	0x3d1ae880	0.037819386
37	0x3b12f700	0.0022425056
38	0xbc650900	-0.013979197
39	0xb4800000	-2.3841858e-07
40	0x3ca46400	0.020067215
41	0x3d412580	0.047154903
42	0x3cb68900	0.022282124
43	0x3c216a00	0.0098519325
44	0x3ab34800	0.0013678074
45	0xbb935e00	-0.0044972897
46	0xbcb04b00	-0.021520138
47	0x3d15e900	0.03659916
48	0x3b2cdd00	0.0026376843
49	0xbd00cb20	-0.031443715
50	0x3d3d6a00	0.046243668
51	0x3bad5100	0.005289197
52	0xbb6cac00	-0.0036113262
53	0x3c831b00	0.016004086
54	0x3c469900	0.012121439
55	0x3cb17f40	0.021667123
56	0x3ce65880	0.028118372
57	0x3c687b80	0.014189601
58	0x3c2ef100	0.010677576
59	0xba188000	-0.00058174133
60	0xbbf62600	-0.007511854
61	0xbcbbcc00	-0.022924423
62	0x3b1e5000	0.002415657
63	0x3c864740	0.016391397
64	0x3c1f1670	0.009709939
65	0x3c5d8000	0.013519287
66	0xbcc80d00	-0.024420261
67	0xbc54ebf8	-0.012995712
68	0x3c4fba00	0.012678623
69	0x3c5bc900	0.013414621
70	0x3c8abf40	0.016936898
71	0x3d116140	0.035493135
72	0xbc1daa00	-0.009623051
73	0x3c739600	0.014867306
74	0x3ad7a200	0.0016451478
75	0x3cf945a0	0.030428708
76	0xbc306480	-0.010766149
77	0xbbd09000	-0.0063648224
78	0x3cc363e0	0.023851335
79	0x3c5fcf00	0.0136601925
80	0xbbfc4c00	-0.0076994896
81	0x3cfabb80	0.030606985
82	0xbca20660	-0.01977843
83	0xbd53c100	-0.05169773
84	0x3a49d000	0.0007698536
85	0x3ccab400	0.024744034
86	0x3b976a00	0.0046207905
87	0x3d15d160	0.03657663
88	0xbbf2fd80	-0.0074154735
89	0xbbb74c00	-0.0055937767
90	0x3c899688	0.016795412
91	0xbc8f2e00	-0.01747799
92	0x3bdcf000	0.0067424774
93	0xba131800	-0.0005611181
94	0xbcc36c40	-0.023855329
95	0x3c076600	0.008264065
96	0xbcab2400	-0.02089119
97	0x3b991400	0.0046715736
98	0x3c4df4c0	0.01257056
99	0x3bf0a600	0.0073440075
100	0xb9b9a000	-0.0003540516
101	0x3c478400	0.012177467
102	0x3c822b00	0.015889645
103	0x3d4c3a00	0.04986
104	0x3d253ca0	0.04034102
105	0xbcfd8d00	-0.030951023
106	0xbccb2e00	-0.024802208
107	0xbc5233a0	-0.012829691
108	0xbc0b82e0	-0.00851509
109	0xb91a0000	-0.00014686584
110	0xbbfb2700	-0.0076645613
111	0x3d13cd00	0.036084175
112	0x3c4c3080	0.012462735
113	0xbb22cb00	-0.0024840236
114	0xbd153580	-0.036427975
115	0x3c880180	0.016602278
116	0x3bd2bc00	0.0064311028
117	0x3c3e8400	0.011628151
118	0x3d4ca900	0.04996586
119	0xbaef9000	-0.0018277168
120	0xbc5bf5a0	-0.013425261
121	0x3c66e040	0.014091551
122	0x3c059600	0.008153439
123	0x3cd58700	0.02606535
124	0xbae9de00	-0.001784265
125	0xbcdeb000	-0.027183533
126	0xbc916bc0	-0.017751575
127	0xbd105500	-0.035237312
128	0x3cd84b80	0.026403189
129	0x3c0599c0	0.008154333
130	0xbcaa7000	-0.020805359
131	0xb9440000	-0.00018692017
132	0xbb4cc200	-0.0031243563
133	0x3c830900	0.015995502
134	0xbaf81000	-0.0018925667
135	0x3c990800	0.018680573
136	0xbb98e600	-0.00466609
137	0xbc15ff78	-0.009155147
138	0xbb2e0200	-0.0026551485
139	0xbcba9580	-0.022776365
140	0x3c63ce00	0.013904095
141	0x3b968400	0.0045933723
142	0x3ceddf00	0.029036999
143	0x3c468b00	0.012118101
144	0xbd10b900	-0.03533268
145	0xbc7a8240	-0.015289843
146	0xbc767900	-0.015043497
147	0xbd0c3580	-0.03423071
148	0x3c2e5900	0.010641336
149	0x3b6c0ec0	0.0036019534
150	0xbcd22588	-0.025652662
151	0xbb4b8c00	-0.0031058788
152	0x3c281a00	0.010260105
153	0xbd6dc500	-0.058049202
154	0x3bb06c00	0.0053839684
155	0x3cee4f80	0.029090643
156	0xbb892000	-0.004184723
157	0xb69b8000	-4.634261e-06
158	0xbbf76400	-0.0075497627
159	0xbc53c680	-0.012925744
160	0xbbec8400	-0.007217884
161	0x3c9b9480	0.018991709
162	0xbc27b500	-0.010236025
163	0xbb7fe800	-0.0039048195
164	0xbb9c9c00	-0.004779339
165	0xbb9ad700	-0.004725337
166	0x3d00b280	0.03142023
167	0xba2a5000	-0.0006496906
168	0xbc975640	-0.018473744
169	0x3cc7d040	0.024391294
170	0xbc8c2200	-0.017106056
171	0xbcaf0578	-0.021364912
172	0x3c72a600	0.014810085
173	0xbce2e200	-0.027695656
174	0x3b378800	0.0028004646
175	0x3d3e66d0	0.04648477
176	0x3ba86400	0.005138874
177	0xbc5b2900	-0.013376474
178	0xbb82e700	-0.0039948225
179	0xbc0a3b00	-0.008436918
180	0x3d10cca0	0.035351396
181	0x3b8f9000	0.00438118
182	0x38950000	7.104874e-05
183	0xbca82f40	-0.020530343
184	0x3cc50100	0.024048328
185	0x3a14a000	0.0005669594
186	0x3d131fea	0.035919107
187	0x3c0f0a00	0.0087304115
188	0x3bfa9200	0.007646799
189	0xbb857400	-0.004072666
190	0x3cf37880	0.029720545
191	0x3cc64580	0.024203062
192	0xbc1bba00	-0.009504795
193	0x3c92f900	0.017940998
194	0x3d35aaa0	0.044352174
195	0x3c6c2800	0.014413834
196	0x3bbcc800	0.0057611465
197	0xbb296300	-0.0025846362
198	0xbc80fdc0	-0.015745997
199	0x3c9fda00	0.01951313
200	0xbc88ae40	-0.016684651
201	0x3ca54e00	0.020178795
202	0x3cc25b60	0.023725212
203	0xbce26000	-0.027633667
204	0x3cbacc00	0.022802353
205	0xbd19a910	-0.037514746
206	0xbc8ba580	-0.01704669
207	0xbcec0e00	-0.02881527
208	0xb9e9e000	-0.00044608116
209	0x3d6e47e0	0.058174014
210	0x3d4a34c0	0.049366713
211	0xbc737780	-0.014860034
212	0x3c0ee500	0.00872159
213	0x3b912000	0.0044288635
214	0xbace6800	-0.0015747547
215	0x3ced9480	0.029001474
216	0x3a41d000	0.000739336
217	0x3cb7ea00	0.022450447
218	0x3c023000	0.007946014
219	0xbb5c1000	-0.0033578873
220	0x3c8d9f80	0.01728797
221	0x3af4c000	0.0018672943
222	0x3b87bc00	0.0041422844
223	0x3c2ede00	0.010673046
224	0x3bb8c200	0.005638361
225	0x3b8f0800	0.0043649673
226	0x3d2d5c00	0.042324066
227	0x3c622200	0.013802052
228	0x3c129700	0.008947134
229	0x3bbadc40	0.0057025254
230	0xbc157c00	-0.009123802
231	0x3c57e400	0.013176918
232	0x3aea9000	0.0017895699
233	0x3d3fbdc0	0.04681182
234	0x3b416000	0.0029506683
235	0x3bd37400	0.0064530373
236	0x3cd9f680	0.026606798
237	0xbc70e300	-0.0147025585
238	0xbd39c100	-0.045350075
239	0xb9cc0000	-0.00038909912
240	0xbcddba80	-0.02706647
241	0xbc32a280	-0.010903001
242	0xbc0ce940	-0.008600533
243	0x3ca55900	0.02018404
244	0xbcdb2200	-0.02674961
245	0x3b62f600	0.003463149
246	0x3c9c8a50	0.019108921
247	0x3b867500	0.004103303
248	0x3c0c9d00	0.008582354
249	0xbce8a760	-0.028400123
250	0x3caea100	0.021317005
251	0x3c15aa80	0.009134889
252	0xbcd67680	-0.026179552
253	0xbb4fa000	-0.003168106
254	0xbabd3000	-0.0014433861
255	0xbb1c04c0	-0.0023806542
